model/model.pth (torch, 16787 bytes, 4 tensors)

linear1.weight f4 [256, 11]
-0.16937244 0.14019689 -0.2897118 0.12972338 -0.13907604 -0.01906902 -0.09543533 0.061433602
0.033694245 0.31681278 -0.0011356495 0.109126404 0.14926697 0.01736768 -0.004282916 -0.20290361
0.08113595 0.028352499 0.23196599 0.033561915 0.21528706 0.30925757 0.26725075 -0.07922164
-0.20071383 -0.13998982 -0.253842 -0.122067705 -0.18259 0.30276728 -0.24022594 0.099204786
-0.21304506 -0.20502187 0.038454704 -0.21616755 -0.38520193 -0.14544773 -0.38590986 0.066559225
-0.033175547 0.1244814 -0.28995618 0.08242576 0.24362111 0.20625211 0.0024902439 -0.34936643
-0.17486879 0.00980141 -0.1322815 -0.19054718 0.06502923 0.26491734 -0.10235781 -0.23164257
-0.22749123 -0.18213712 -0.04359753 0.06660451 -0.3002986 -0.2589836 -0.10269882 0.0837163
-0.08678659 0.043135397 0.35649568 -0.08889074 0.35468775 -0.029499898 0.050902173 -0.10230927
-0.009931845 0.20131914 0.22027859 -0.04993156 -0.19060066 0.26181892 0.16794407 -0.40558606
0.044387728 0.18211272 0.31954902 0.04251141 -0.075415656 0.027334446 0.2566771 0.22001916
0.31569707 0.04176524 -0.08131575 0.24890643 0.13964911 0.2631806 -0.007605543 -0.0008842596
-0.04206733 -0.0968243 0.050984994 -0.1240433 0.35640803 -0.14151555 -0.34317487 -0.019042201
0.111917496 -0.18106073 0.031885743 0.2681911 -0.121471606 -0.050189346 -0.29902124 -0.0797701
-0.05338637 0.081520736 -0.29201514 -0.29205495 -0.28615648 -0.29278252 -0.24425179 -0.1091087
-0.31032595 -0.075208046 -0.10086545 -0.03304404 -0.033573985 0.041448634 0.11809718 0.11117245
-0.07096754 0.17950505 0.19601041 0.3052124 0.25424096 0.3315092 -0.22656877 0.19465019
-0.27449214 -0.18441005 -0.22911432 0.14955236 0.1107552 0.26271635 -0.070729725 0.042210836
0.3694903 -0.14424093 -0.08702351 -0.10373435 -0.008636999 -0.01163632 0.30590567 -0.059465323
0.21489279 -0.16182123 0.32844067 -0.29965264 0.02906931 0.2555139 0.28408602 -0.034841184
0.33639857 0.17292319 0.22495483 -0.10476595 -0.06460167 -0.03679246 0.04254184 0.18468764
-0.21364732 0.1679395 0.119533196 -0.0991885 0.1398465 -0.26314676 0.17472589 -0.27918786
-0.23869726 0.37022308 -0.1540549 0.121570386 -0.13600145 -0.003980144 -0.2777212 -0.21714802
-0.23887925 -0.23150454 -0.009454953 0.023920106 0.21405366 0.15832935 -0.13015075 0.26229054
0.06500539 -0.22937486 -0.33375603 -0.29589385 -0.28840393 0.1689118 -0.031059152 0.035712592
-0.011616765 0.27467746 -0.1829472 0.12369377 0.25638446 0.20854099 -0.29814726 0.041932695
-0.21351388 0.28224784 0.17768693 -0.15679751 0.070347935 -0.077959724 -0.23654458 0.11136704
0.23432629 0.119152956 0.018267274 -0.086989425 0.29980987 0.35263792 -0.21811447 -0.115201116
-0.17205213 0.102316864 0.21589747 0.17468104 0.27263165 -0.06977639 -0.048940524 0.2277598
0.32775703 0.26974222 -0.19487399 0.044016104 -0.08027964 0.17920844 0.10441046 0.20923887
-0.10353711 0.1024514 -0.22346368 0.030092074 0.23947227 -0.058335155 0.122918375 -0.08528063
-0.29820606 0.069591306 -0.16501881 0.0014586556 0.1267825 0.17529273 -0.17856595 -0.033657774
00000000: f86f 2dbe c68f 0f3e 1b55 94be 35d6 043e
00000010: f369 0ebe a236 9cbc 9973 c3bd cda1 7b3d
00000020: fa02 0a3d 4935 a23e 13da 94ba aa7d df3d
00000030: 71d9 183e aa46 8e3c b457 8cbb f7c5 4fbe
00000040: 9b2a a63d 8043 e83c 7e88 6d3e 3878 093d
00000050: 3674 5c3e 0257 9e3e 17d5 883e f53e a2bd
00000060: ed87 4dbe 7e59 0fbe 94f7 81be a2fe f9bd
00000070: dff8 3abe 5004 9b3e cafd 75be e12b cb3d
00000080: 7c28 5abe 41f1 51be ae82 1d3d 075b 5dbe
00000090: 3039 c5be 40f0 14be fa95 c5be 3450 883d
000000a0: 15e3 07bd 1bf0 fe3d 2375 94be d6ce a83d
000000b0: d077 793e c133 533e 5c33 233b 28e0 b2be
000000c0: ce10 33be 1896 203c cd74 07be cd1e 43be
000000d0: 0c2e 853d 3fa3 873e f9a0 d1bd b633 6dbe
000000e0: 76f3 68be 2782 3abe 5393 32bd f267 883d
000000f0: bdc0 99be 8099 84be c253 d2bd 7473 ab3d
00000100: 2bbd b1bd beae 303d 9a86 b63e 590c b6bd
00000110: a299 b53e c5a9 f1bc cc7e 503d 8687 d1bd
00000120: 2db9 22bc 9b26 4e3e b690 613e 0985 4cbd
00000130: d22c 43be 210d 863e 88f9 2b3e faa8 cfbe
00000140: e8cf 353d c27b 3a3e ee9b a33e 7220 2e3d
00000150: 8673 9abd 7dec df3c 2e6b 833e b44c 613e
00000160: 0ca3 a13e 0712 2b3d df88 a6bd 54e1 7e3e
00000170: 2d00 0f3e 9cbf 863e eb37 f9bb a8cd 67ba
00000180: cb4e 2cbd d24b c6bd a4d5 503d 6a0a febd
00000190: 1d7b b63e 74e9 10be 9eb4 afbe 64fe 9bbc
000001a0: 0035 e53d fc67 39be a09a 023d 5850 893e
000001b0: 1bc6 f8bd 5893 4dbd 5019 99be 825e a3bd
000001c0: abab 5abd 58f4 a63d 0283 95be 3a88 95be
000001d0: 1a83 92be 97e7 95be 241d 7abe 6274 dfbd
000001e0: 0be3 9ebe ad06 9abd 8c92 cebd 3059 07bd
000001f0: e084 09bd 0bc6 293d efdc f13d 62ae e33d
00000200: 6e57 91bd 2cd0 373e f4b6 483e cd44 9c3e
00000210: df2b 823e 93bb a93e a501 68be 6152 473e
00000220: 3c8a 8cbe fdd5 3cbe f29c 6abe 4124 193e
00000230: 9fd3 e23d c282 863e bfda 90bd 45e5 2c3d
00000240: d52d bd3e e5b3 13be 6239 b2bd ad72 d4bd
00000250: 3382 0dbc 43a6 3ebc ab9f 9c3e e991 73bd
00000260: db0c 5c3e 77b4 25be 6029 a83e 126c 99be
00000270: c322 ee3c b8d2 823e b973 913e a1b5 0ebd
00000280: 6f3c ac3e c712 313e 8f5a 663e 888f d6bd
00000290: e14d 84bd b1b3 16bd 5a40 2e3d c21e 3d3e
000002a0: 5dc6 5abe 55f8 2b3e d2cd f43d 5723 cbbd
000002b0: ec33 0f3e 2cbb 86be 58eb 323e b6f1 8ebe
000002c0: 0e6d 74be e18d bd3e 91c0 1dbe e5f9 f83d
000002d0: f743 0bbe de6b 82bb 7931 8ebe 0d5c 5ebe
000002e0: c39c 74be 870f 6dbe f2e8 1abc 19f4 c33c
000002f0: e230 5b3e 1721 223e 3d46 05be f24a 863e
00000300: 8c21 853d 3ee1 6abe 12e2 aabe 667f 97be
00000310: aea9 93be 37f7 2c3e c36f febc 5e47 123d
00000320: 3e54 3ebc 86a2 8c3e 8356 3bbe 2953 fd3d
00000330: d344 833e c58b 553e c2a6 98be 9ec1 2b3d
00000340: 62a3 5abe ca82 903e 90f3 353e 878f 20be
00000350: 9412 903d 59a9 9fbd be38 72be 6714 e43d
00000360: 3bf3 6f3e 7706 f43d 40a5 953c 8327 b2bd
00000370: ae80 993e f58c b43e 6659 5fbe 90ee ebbd
00000380: 6f2e 30be 818b d13d 3a14 5d3e 96df 323e
00000390: 6096 8b3e ede6 8ebd dc75 48bd dd39 693e
000003a0: c5cf a73e a71b 8a3e 0c8d 47be 3b4a 343d
000003b0: a769 a4bd 6b82 373e 27d5 d53d b742 563e
000003c0: 440b d4bd 0ad2 d13d aad3 64be a783 f63c
000003d0: 3838 753e d8f0 6ebd a1bc fb3d 9ca7 aebd
000003e0: 77ae 98be e385 8e3d b1fa 28be 5c30 bf3a
000003f0: 46d3 013e f07f 333e fed9 36be bcdc 09bd

linear1.bias f4 [256]
0.06156643 0.094607055 0.1499015 0.16942048 0.030438066 0.2830758 -0.102876544 -0.08308919
0.2670444 0.23212175 0.12761451 0.3793989 -0.097462736 0.34611103 -0.20664272 0.018029444
0.32870236 -0.10319572 -0.34882155 0.21627206 -0.11515543 0.21018502 -0.32282123 0.24189477
0.23263288 0.16294952 0.17136618 -0.2166489 0.2891973 -0.24516733 -0.055099394 -0.17358032
-0.21468398 0.28993782 -0.102905996 0.143283 -0.18302335 0.09253841 -0.17595889 -0.36422458
-0.004114216 -0.17684132 0.13620083 0.35911885 -0.30900803 0.105358265 -0.21191381 -0.102996126
-0.27466065 0.20460144 -0.060531866 -0.2864265 0.118077055 0.21025184 0.25726753 0.21948925
0.2881864 -0.27091706 -0.059583932 0.23912743 0.09705852 0.096442424 -0.09093693 -0.12422698
0.31384084 0.21915317 -0.074538596 -0.23152077 0.015039429 -0.12970626 -0.08783995 0.05703428
-0.00059323467 -0.2805055 -0.108358435 -0.14103706 0.038625553 -0.02925774 0.2066417 -0.14567025
0.35415515 0.23197894 -0.3072156 -0.009858448 -0.17172916 -0.08632037 0.17828432 0.035912193
0.123166874 -0.027653635 0.38636377 -0.17598706 0.101602994 -0.10407972 0.010513163 -0.040676344
0.006630972 0.09172771 0.35175163 0.26915538 0.35639033 0.1869125 -0.15163085 -0.32157573
0.20142183 0.07928194 0.105328485 -0.025644733 0.08404106 0.16555257 -0.24383011 0.22480509
-0.1615213 -0.2867123 0.27972898 0.08412252 -0.13984965 0.28833893 0.22103946 0.09009249
0.1018138 -0.24225514 0.277876 -0.20895676 -0.14947145 0.10803538 0.12988265 0.21130839
0.17384206 -0.13183504 -0.003398959 -0.23859082 -0.05539691 0.2688744 0.095127225 0.15277007
-0.05321632 -0.29630622 -0.18454997 -0.0017531556 -0.16564587 -0.075982295 0.019475961 -0.24678421
0.16801348 0.0482792 0.0132105425 -0.16944657 0.35618746 -0.15135683 -0.07026724 -0.36152783
0.10544904 -0.2732638 0.103993766 -0.21129058 -0.038105372 0.25088447 0.16153334 -0.03797053
-0.025705853 0.036410473 -0.046257902 0.26123676 -0.01962461 -0.19601473 0.16820648 0.18571602
-0.09189746 0.13152318 0.06506803 0.22632916 -0.24950929 0.40987948 0.16984174 -0.12647505
0.2710526 0.15838194 -0.106993385 -0.12590589 -0.25094056 0.2755365 0.19207853 0.01355722
-0.11752297 -0.022862136 0.045980107 0.25930083 0.2272901 0.19559774 0.056614563 -0.11342661
0.14751062 0.1237436 -0.0032439742 0.18841921 0.16691874 0.089854725 -0.29128855 -0.03630282
0.05640043 -0.05320927 -0.10625173 0.26284242 -0.056131385 0.059340764 0.22008336 -0.023413954
-0.2562605 -0.29469147 -0.21261697 -0.23058638 0.17981388 0.01728711 0.044239253 0.015145806
-0.24375238 0.1401777 -0.27727175 0.29936114 0.13185877 -0.23983015 0.06239885 -0.23683415
0.11504533 -0.12563135 -0.050863884 -0.12911662 0.01331719 0.19150501 0.10674133 0.33920044
-0.039210785 0.010037927 -0.17901844 0.044769432 0.1241391 -0.2323824 0.12152632 -0.15988292
0.0753942 0.028281592 0.035665523 -0.15064953 -0.22699258 -0.060326144 -0.024411991 0.03844883
-0.099071 -0.15973127 -0.1912296 0.30178902 -0.17001975 0.30238512 0.231143 0.30000907
00000000: 152d 7c3d 58c1 c13d c77f 193e 907c 2d3e
00000010: 4059 f93c 50ef 903e f0b0 d2bd aa2a aabd
00000020: 0bba 883e 53b1 6d3e 61ad 023e 9340 c23e
00000030: 8b9a c7bd 7735 b13e 269a 53be 7cb2 933c
00000040: ad4b a83e 4758 d3bd bd98 b2be 6c76 5d3e
00000050: 9cd6 ebbd be3a 573e d348 a5be 43b3 773e
00000060: 5037 6e3e 3ddc 263e 9e7a 2f3e 36d9 5dbe
00000070: ab11 943e 250d 7bbe e7af 61bd 0abf 31be
00000080: 1ed6 5bbe bb72 943e 61c0 d2bd c7b8 123e
00000090: 796a 3bbe c784 bd3d 912e 34be a57b babe
000000a0: 8cd0 86bb e415 35be 3b78 0b3e 6dde b73e
000000b0: 4d36 9ebe 13c6 d73d efff 58be a2ef d2bd
000000c0: 52a0 8cbe 0a83 513e 43f0 77bd 7fa6 92be
000000d0: 62d2 f13d 424c 573e 92b8 833e cac1 603e
000000e0: 2b8d 933e a4b5 8abe 480e 74bd d2dd 743e
000000f0: 9ec6 c63d 9b83 c53d 243d babd b76a febd
00000100: bfaf a03e b069 603e b1a7 98bd c813 6dbe
00000110: f067 763c b8d1 04be 6fe5 b3bd c79c 693d
00000120: 4e83 1bba 6b9e 8fbe 07eb ddbd 056c 10be
00000130: d435 1e3d eead efbc e299 533e 952a 15be
00000140: d353 b53e e38b 6d3e 5d4b 9dbe 5485 21bc
00000150: c5d9 2fbe bcc8 b0bd 2a90 363e aa18 133d
00000160: ea3e fc3d e089 e2bc 79d1 c53e f435 34be
00000170: 3b15 d03d c027 d5bd 673f 2c3c 3d9c 26bd
00000180: a048 d93b bddb bb3d ca18 b43e bcce 893e
00000190: cb78 b63e fe65 3f3e 1e45 1bbe 93a5 a4be
000001a0: 8641 4e3e 925e a23d 76b6 d73d e714 d2bc
000001b0: b81d ac3d 9d86 293e 9aae 79be 4e33 663e
000001c0: d765 25be f4cb 92be a338 8f3e 6e48 ac3d
000001d0: bf34 0fbe 29a1 933e 2b58 623e 6982 b83d
000001e0: c183 d03d bb11 78be c345 8e3e c3f8 55be
000001f0: 0b0f 19be a741 dd3d f5ff 043e 3a61 583e
00000200: a703 323e c4ff 06be 12c1 5ebb 2751 74be
00000210: dfe7 62bd e8a9 893e 10d2 c23d c26f 1c3e
00000220: 5bf9 59bd 73b5 97be abfa 3cbe 24ca e5ba
00000230: 129f 29be 9b9c 9bbd 0d8c 9f3c 00b5 7cbe
00000240: ba0b 2c3e 69c0 453d 0871 583c 6783 2dbe
00000250: 345e b63e 49fd 1abe 45e8 8fbd 2d1a b9be
00000260: abf5 d73d 3ce9 8bbe affa d43d 8f5c 58be
00000270: 6114 1cbd ee73 803e ff68 253e fd86 1bbd
00000280: 1595 d2bc 2623 153d ed78 3dbd d3c0 853e
00000290: cac3 a0bc 16b8 48be 523e 2c3e 572c 3e3e
000002a0: bc34 bcbd 03ae 063e 6342 853d d5c2 673e
000002b0: 5d7f 7fbe b9db d13e feea 2d3e ad82 01be
000002c0: 68c7 8a3e e02e 223e 591f dbbd 79ed 00be
000002d0: 487b 80be 1f13 8d3e 3cb0 443e 1a1f 5e3c
000002e0: e2af f0bd 6049 bbbc a355 3c3d 14c3 843e
000002f0: bcbe 683e c64a 483e ace4 673d 364c e8bd
00000300: 060d 173e 496d fd3d db98 54bb f7f0 403e
00000310: bfec 2a3e c105 b83d c623 95be 44b2 14bd
00000320: 2304 673d f7f1 59bd 829a d9bd 4893 863e
00000330: 06ea 65bd 4d0f 733d 885d 613e 9fce bfbc
00000340: 9434 83be cde1 96be 43b8 59be d61e 6cbe
00000350: 2121 383e b39d 8d3c 3834 353d 1d26 783c
00000360: 399a 79be be8a 0f3e 90f6 8dbe dd45 993e
00000370: fc05 073e 0996 75be f095 7f3d a784 72be
00000380: e39c eb3d 81a5 00be a656 50bd 2637 04be
00000390: 5830 5a3c e419 443e 339b da3d aeab ad3e
000003a0: 7d9b 20bd 1e76 243c 9c50 37be 2760 373d
000003b0: a43c fe3d a7f5 6dbe cbe2 f83d 59b8 23be
000003c0: 4668 9a3d ccae e73c 0316 123d df43 1abe
000003d0: be70 68be 8c18 77bd a8fb c7bc 857c 1d3d
000003e0: bde5 cabd 9890 23be b1d1 43be 1784 9a3e
000003f0: a819 2ebe 39d2 9a3e c0b0 6c3e ca9a 993e

linear2.weight f4 [3, 256]
0.005028793 -0.1325722 -0.10241395 0.023472425 -0.0035406742 0.00184458 -0.078048326 -0.01135917
-0.12084917 0.08679177 -0.048850153 -0.03617313 -0.06396512 -0.077500805 -0.07169873 -0.0047546504
-0.09177928 -0.014536266 0.0037962701 -0.05258466 -0.062451124 -0.070218995 0.020552479 -0.043752626
-0.009714512 -0.03966366 0.075433016 -0.11207856 0.012869364 0.025700834 -0.14112663 -0.021183204
0.03096957 -0.007001134 0.0014298803 -0.083937675 -0.008433682 0.03781592 -0.0069896295 -0.0072472696
-0.015293824 0.0748426 -0.009532913 -0.06616002 -0.021148829 -0.055660732 -0.08714244 0.04923132
0.014001851 0.016995091 -0.08493963 0.006241128 0.047718327 -0.055370905 -0.01136547 -0.021784063
-0.058422055 -0.0040567573 0.16063699 -0.03776585 -0.09885032 -0.07040339 -0.0026078024 0.008644601
-0.06870702 -0.07191729 -0.024768895 0.038893323 0.05409085 -0.082595974 0.038654156 0.033432394
-0.110163696 -0.012801847 -0.03532376 -0.052278083 -0.07350846 -0.03461479 -0.07263693 -0.11884072
-0.1054829 -0.09584546 -0.082788825 -0.048903063 -0.114969105 -0.06739264 -0.083870515 -0.042517915
-0.06805998 -0.053565662 -0.040224895 -0.054163635 0.024728466 0.03763926 -0.04806259 -0.11364304
-0.038091794 -0.0031840934 -0.08964441 -0.022524623 -0.10909868 -0.05263644 -0.021532783 -0.02614352
-0.04508455 0.002242583 -0.094204746 -0.0402047 -0.030782012 -0.07173506 -0.026780356 -0.07721802
-0.0060564172 0.0049867793 -0.011339599 0.049638942 -0.030845003 0.010722698 -0.064006284 0.040510725
-0.09103943 0.010689756 -0.03380927 -0.0369564 -0.03173437 -0.037971627 -0.03396672 0.0063230665
0.049635418 -0.0222105 -0.018493176 0.06834894 0.11325091 -0.02298775 -0.018975385 -0.0445009
-0.088874914 0.015706947 -0.054717835 -0.015731059 -0.0932148 -0.029765725 -0.072106525 -0.00039654024
-0.045462865 0.02101156 -0.009863432 0.021282542 -0.012248904 -0.015078554 0.17298836 0.006269923
-0.10917328 -0.01858471 -0.06438608 -0.114216745 -0.15886869 -0.055054218 0.029610587 -0.026963817
-0.0047991974 0.0682738 -0.022074701 -0.083067976 -0.037180476 -0.041613787 -0.08285088 -0.121127665
0.04381411 -0.024281668 -0.13814051 -0.033215933 -0.005749333 -0.06739476 -0.12649964 -0.046134133
-0.08001206 0.003547671 -0.11363705 -0.020744422 0.017670572 -0.075986356 -0.0077595585 0.026672445
0.034218278 -0.08419914 -0.033141695 -0.055819828 -0.06292171 -0.038571637 -0.057529174 -0.08215539
-0.01623555 -0.032316197 -0.088589795 -0.103700966 0.008298172 -0.103827566 0.031305198 -0.01011479
-0.05925102 0.016485222 -0.11726463 -0.009021909 -0.05949391 -0.11309808 -0.02170855 -0.0029668799
-0.026010364 -0.011726287 0.020370178 0.006612787 -0.013382474 -0.043736126 0.18610486 -0.018996432
0.008717611 -0.052570477 0.0057587503 -0.04340193 -0.06726904 0.009439014 -0.06064723 0.012674137
-0.021493917 0.037256107 -0.026974438 -0.035558455 -0.022255564 -0.044623066 -0.061909303 -0.01612611
0.009730295 -0.025959596 -0.034547802 0.11683755 -0.0715285 0.05396416 -0.022245033 0.016290454
-0.0007231105 -0.07647239 -0.09683312 -0.094169624 -0.12888028 -0.015245862 -0.016246378 -0.06791363
-0.13100128 0.02448212 0.082044564 -0.07381026 0.065521 -0.101586826 -0.04209969 0.078469835
00000000: 93c8 a43b 02c1 07be 68be d1bd 3e49 c03c
00000010: a80a 68bb d6c5 f13a cdd7 9fbd d01b 3abc
00000020: c57f f7bd e2bf b13d 1917 48bd 472a 14bd
00000030: 2500 83bd beb8 9ebd c9d6 92bd e6cc 9bbb
00000040: c6f6 bbbd 8529 6ebc d8ca 783b 0363 57bd
00000050: c0cc 7fbd face 8fbd ac5d a83c f435 33bd
00000060: 9e29 1fbc 5d76 22bd a07c 9a3d 7289 e5bd
00000070: 06da 523c 8e8a d23c 8083 10be 6688 adbc
00000080: e5b3 fd3c c569 e5bb d26a bb3a 84e7 abbd
00000090: 6d2d 0abc dee4 1a3d 4309 e5bb 817a edbb
000000a0: f292 7abc 1447 993d ef2f 1cbc e87e 87bd
000000b0: 4f40 adbc 82fc 63bd bc77 b2bd c8a6 493d
000000c0: 0568 653c 4a39 8b3c d4f4 adbd 6082 cc3b
000000d0: 4b74 433d 9acc 62bd 3c36 3abc 7e74 b2bc
000000e0: f74b 6fbd 8cee 84bb 067e 243e 5db0 1abd
000000f0: 0972 cabd a72f 90bd aae7 2abb 16a2 0d3c
00000100: 44b6 8cbd 5f49 93bd 23e8 cabc 9b4e 1f3d
00000110: 5e8e 5d3d 1428 a9bd d253 1e3d 68f0 083d
00000120: 819d e1bd d7be 51bc a6af 10bd 8b21 56bd
00000130: 9a8b 96bd 3dc8 0dbd acc2 94bd c362 f3bd
00000140: 6b07 d8bd a04a c4bd 308d a9bd 944e 48bd
00000150: ec74 ebbd 2705 8abd 4ec4 abbd 4427 2ebd
00000160: 0863 8bbd ab67 5bbd dcc2 24bd b0da 5dbd
00000170: 5a93 ca3c a02b 1a3d 47dd 44bd afbd e8bd
00000180: 2406 1cbd 39ac 50bb 7d97 b7bd 8f85 b8bc
00000190: 216f dfbd 4f99 57bd 8565 b0bc ef2a d6bc
000001a0: 94aa 38bd 4df8 123b 6bee c0bd afad 24bd
000001b0: 8f2a fcbc d5e9 92bd 7a62 dbbc 7b24 9ebd
000001c0: e974 c6bb 2368 a33b bac9 39bc 3452 4b3d
000001d0: a9ae fcbc 41ae 2f3c ba15 83bd 93ee 253d
000001e0: e172 babd 1624 2f3c 977b 0abd 985f 17bd
000001f0: e6fb 01bd 2388 1bbd b020 0bbd ba31 cf3b
00000200: 824e 4b3d cbf2 b5bc 007f 97bc 87fa 8b3d
00000210: 18f0 e73d ce50 bcbc 4472 9bbc 9346 36bd
00000220: 0d04 b6bd dbab 803c cf1f 60bd 6cde 80bc
00000230: 67e7 bebd 40d7 f3bc 96ac 93bd bbe6 cfb9
00000240: 4537 3abd 6f20 ac3c 3b9a 21bc ba58 ae3c
00000250: a1af 48bc 0a0c 77bc dc23 313e ed73 cd3b
00000260: 3e96 dfbd f63e 98bc d9dc 83bd 78ea e9bd
00000270: 79ae 22be 8880 61bd e791 f23c 39e3 dcbc
00000280: 9642 9dbb 22d3 8b3d 01d6 b4bc 8b1f aabd
00000290: 8e4a 18bd 3873 2abd b9ad a9bd c811 f8bd
000002a0: 6d76 333d 59ea c6bc b574 0dbe 6e0d 08bd
000002b0: e764 bcbb 4406 8abd 1f89 01be 25f7 3cbd
000002c0: 5ddd a3bd 0b80 683b 8bba e8bd 35f0 a9bc
000002d0: e0c1 903c bc9e 9bbd e543 febb 2c80 da3c
000002e0: 7728 0c3d 9970 acbd 96bf 07bd 55a3 64bd
000002f0: 19dd 80bd 4bfd 1dbd b6a3 6bbd 1641 a8bd
00000300: 6b00 85bc fd5d 04bd 916e b5bd 2c61 d4bd
00000310: 0ef5 073c 8ca3 d4bd e139 003d 81b8 25bc
00000320: 33b1 72bd 040c 873c 7028 f0bd a1d0 13bc
00000330: e3af 73bd f79f e7bd 21d6 b1bc fc6f 42bb
00000340: b013 d5bc 9d1f 40bc 5cdf a63c 14b0 d83b
00000350: 2a42 5bbc a724 33bd 4692 3e3e 689e 9bbc
00000360: 50d4 0e3c 2454 57bd e6b3 bc3b 39c6 31bd
00000370: 5ac4 89bd 18a6 1a3c 3b69 78bd 2fa7 4f3c
00000380: 0314 b0bc dc99 183d 7ff9 dcbc bea5 11bd
00000390: 4d51 b6bc adc6 36bd 9c94 7dbd e71a 84bc
000003a0: d16b 1f3c 38a9 d4bc ff81 0dbd 8748 ef3d
000003b0: 897d 92bd 8609 5d3d 373b b6bc 8f73 853c
000003c0: 208f 3dba 8e9d 9cbd 7150 c6bd 01dc c0bd
000003d0: 31f9 03be c8c9 79bc 2017 85bc 4d16 8bbd
000003e0: 3325 06be ba8e c83c fb06 a83d d529 97bd
000003f0: e02f 863d c10c d0bd b970 2cbd cbb4 a03d

linear2.bias f4 [3]
-0.03699277 -0.13515007 -0.09635759
00000000: bb85 17bd c864 0abe 2157 c5bd
